Source/RenderPasses/AdaptiveVRS/Jaliborc/JaliVRS.onnx (onnx, 43042 bytes, 37 tensors)

0.0.bias f4 [16]
00000000: e66d 5abf 39f6 1abc 8be0 b23c dcdb 5c3d
00000010: e0e3 4e3e e37b 96bd 8fb2 ea3d 3a4c 4a3e
00000020: f61a cebc a1e3 9eba fbe1 c63c 1009 a53d
00000030: 9c4f 893d cc14 a33d 3e42 67bd 20d8 11be
-0.8532394 -0.009458118 0.021835586 0.05392061 0.20204115 -0.07347848 0.114598386 0.1975564
-0.02515934 -0.0012122282 0.024277678 0.08058369 0.067046374 0.07962951 -0.056459658 -0.14242601

0.0.weight f4 [16, 18, 3, 3]
00000000: d3c0 1bbd 268d 953c 58ee 74bc 49c3 8ebd
00000010: 8a49 f7bc 11d7 ffbc 98d8 f8bd 5a95 73bc
00000020: a72e 03bd 7cc3 823c f735 49bd d050 9ebd
00000030: 80b5 9ebd b355 afbd e0c2 67bd e53f b6bd
00000040: 193f f1bd 198c 19be fbf2 e23c 84d3 5ebd
00000050: 4298 f4bd 8b21 07b9 21f5 ce3b cb8b afbd
00000060: 611f 63bd 15b1 95bd 50c8 d2bd 0c5e c8bd
00000070: d7fa 0abe 94df 53be 53de 8ebd 5489 ecbd
00000080: 2725 5fbe c5f5 dcbe 20c2 ddbe 135a e1be
00000090: 16e7 89bd 0105 9fbd 572a 69be 2188 80bd
000000a0: 49c1 9fbd 6c14 09be 1f9b f5bd 2dc9 86be
000000b0: f34f efbd cc7f a4bd dc0b 00be 8108 ddbd
000000c0: 2342 a5bd 3e9f 713d ad69 07be df67 2fbe
000000d0: 55b4 2ebe f3f5 4ebe 1f97 8fbd bbb0 92bc
000000e0: 664e c3bd 4d0c f3bc 4f05 9ebd ea1f 9fbd
000000f0: d7e5 1cbe 4d45 11be a829 54be e0fd adbd
00000100: 0487 f13c 7c23 93bd 07c3 463d 3865 b9bd
00000110: 906d 0cbd 344a 48be 4dde 0ebe b400 13be
00000120: 3071 3e39 f38a b1bd 5baa 35bc 4f1b 35bd
00000130: 3eb0 c0bd 0aed f0bd b672 4abe b2f1 4fbe
00000140: 51d5 0abe 4720 bd3c 0be0 e5bc 9538 c6bd
00000150: f392 903c ba58 53bd fd19 07bd 42f2 01be
00000160: ed82 7ebd bdeb a0bd dc05 44bd 636b 9dbd
00000170: dd0f 27be e086 2abe 0026 b0bd 41ee 3ebe
00000180: 120a babe 313a d4be 6116 b2be 0e4b 52bc
00000190: fcba 4ebc b24a e2bc 4df0 f3bd c8ae 1c3d
000001a0: 4c1a 15bd 0538 73be 62b9 82be 79cc 37be
000001b0: e964 9cbd 4af2 97bd 074c bbbc 9af9 1ebd
000001c0: e77a aabd f3be c7bd 9567 b5be 6a6d d2be
000001d0: 47c2 a3be 8177 9fbd 796e 39bd e691 d4bd
000001e0: 52a0 52bb b164 d2bc 3202 0abe 0c3f 9ebe
000001f0: dd8c 84be 57fe 88be 9d94 933c 6b62 0c3d
00000200: 5008 df3c bd38 07bd b3e7 063d 4adf bbbd
00000210: 2561 11bc 536c 9dbd b74c 27bd fc37 063c
00000220: 5cf8 053d fe95 d53c 8854 373d 0296 b2bd
00000230: 0d1c b2bd 5b80 89bd 8b48 96bd a9ea 99bd
00000240: b3b4 3e3c 35bb a8bd 4114 2f3d 448c 1ebd
00000250: f98a 373d 47b3 203d 3372 fcbb fca6 8dbc
00000260: d6c6 183d b8f5 6dbe 8800 1abe cef0 95be
00000270: 5f12 85be 7d00 13be b135 67be 743c a4be
00000280: f610 8fbe 494b a6be 6385 65bd 2a48 b43d
00000290: 7fb0 38bc 718b 34bd 1c34 e93d 8cf3 eb3d
000002a0: 7f82 5b3d 240c e93c 8154 003d aa9a 6b3c
000002b0: 4730 813d a23b a63d 5ade 793d 6dc4 22bb
000002c0: 4333 94bc 0857 89bc 0039 94bc 74aa af3d
000002d0: 8283 01bb 50a5 513d a770 233d 099b 9fbc
000002e0: 47e8 d93c 4852 81bd 5be8 763d 85eb 863d
000002f0: 3aa6 1fbd 7eac 8abd 2808 cfbd 1017 10be
00000300: 1deb 26be 0ba8 3abe 25dc 16be f519 ecbd
00000310: cf09 09bd f759 b93d 1103 903d 2734 72bc
00000320: a85c a83b 4a52 9ebd d739 0fbd 5e9a a63d
00000330: 071d 863d c022 afbb 2c10 573d f07a 09bc
00000340: d6e5 873c 8106 0ebd 1184 1fbd daee 8cbd
00000350: 61fd 963d 37e9 7dbd 7c1e 08bd fd71 873d
00000360: 0456 bdbd ad69 f6bc 6e93 b93c 7d57 b9bd
00000370: ad53 a6bc b248 2fbd a209 f7bb 3bd1 923c
00000380: bceb df3c 8216 a63d 2815 dcbb 93ba b4bc
00000390: b012 763d 67de b1bc dfe3 4d3c b61c 1c3d
000003a0: 4f87 1a3d 612d 80bc a718 13bd 5945 4d3d
000003b0: a0f7 4d3d edea 80bd 052e 183d fed9 7dbd
000003c0: 34d8 c83c 6ad0 fd39 1f66 5dba 6e5f 8f3c
000003d0: 6e08 81bd 6d24 643d 5b6d ccbb a479 e13b
000003e0: 7538 473a 67b5 87bd 912a 633c 84d6 aabc
000003f0: 7fc6 34bd 9d35 e93c 154a 6239 80e2 54bd
-0.03802569 0.018255781 -0.014949404 -0.069708414 -0.030186433 -0.031230481 -0.12150687 -0.014867151
-0.032026913 0.015962355 -0.04912373 -0.077302575 -0.07749462 -0.08561268 -0.05658233 -0.08898906
-0.11779613 -0.1499485 0.027703753 -0.054400936 -0.119431034 -0.00012887099 0.0063158427 -0.08571585
-0.055449847 -0.07309166 -0.10292113 -0.09783563 -0.1357225 -0.20690757 -0.06975999 -0.11549631
-0.21791516 -0.43156257 -0.43312168 -0.44014034 -0.06733529 -0.07764626 -0.22770058 -0.062759645
-0.07800538 -0.13386697 -0.119924776 -0.2632536 -0.11685171 -0.08032188 -0.12504524 -0.107926376
-0.08069255 0.058989756 -0.13223906 -0.17129467 -0.17060979 -0.2021101 -0.07011246 -0.017906537
-0.09536438 -0.029668951 -0.07715856 -0.07769759 -0.15322052 -0.14186592 -0.20719016 -0.084956884
0.029483326 -0.071845025 0.048525836 -0.09052509 -0.034284174 -0.19559556 -0.13951989 -0.14355737
0.00018161978 -0.086690806 -0.011087979 -0.044215497 -0.094086155 -0.117639616 -0.19770321 -0.20307043
-0.13557936 0.02308668 -0.028060934 -0.09678761 0.017648196 -0.051598288 -0.03298377 -0.1269007
-0.06213658 -0.078574635 -0.04785715 -0.07686498 -0.16314645 -0.16653013 -0.08600998 -0.18645574
-0.36335808 -0.41450647 -0.347827 -0.012835277 -0.012617823 -0.027623508 -0.11911068 0.038252622
-0.03640203 -0.23751839 -0.2553206 -0.17949094 -0.076364346 -0.0741926 -0.022863401 -0.038812257
-0.08324223 -0.097532175 -0.3543059 -0.410991 -0.3198416 -0.077864654 -0.04527137 -0.103793904
-0.0032139015 -0.025682779 -0.134774 -0.30907476 -0.2588872 -0.26756546 0.0180152 0.034273546
0.027225643 -0.033013094 0.03293581 -0.091734484 -0.008873259 -0.07686677 -0.040844645 0.008192059
0.032707557 0.026072498 0.04475835 -0.08720018 -0.086967565 -0.06713935 -0.07338055 -0.07515461
0.011639762 -0.08238832 0.042743925 -0.038707986 0.04481027 0.039233472 -0.0077040433 -0.017291538
0.037299 -0.23238266 -0.15039265 -0.29285282 -0.2599058 -0.14355655 -0.22579075 -0.32077372
-0.27942628 -0.32479313 -0.05603541 0.08802827 -0.011272549 -0.044078294 0.11386892 0.11521062
0.053591248 0.028448172 0.03133059 0.0143801365 0.06308036 0.08116843 0.061003067 -0.0024836317
-0.01809085 -0.016765133 -0.018093586 0.08577433 -0.0019762223 0.051183045 0.039902356 -0.019483106
0.026600016 -0.06314522 0.060280185 0.065878905 -0.038976885 -0.067711815 -0.101089776 -0.14071298
-0.16300626 -0.18228166 -0.14732416 -0.115283884 -0.03345662 0.090503626 0.07031835 -0.014782942
0.0051379986 -0.07730539 -0.03496727 0.08134912 0.06548505 -0.0053447187 0.052505657 -0.008391127
0.016589087 -0.03467417 -0.038944308 -0.06881495 0.07372547 -0.06198999 -0.033232197 0.066135384
-0.09244922 -0.030079687 0.022653308 -0.0904989 -0.020303572 -0.042793937 -0.00753899 0.017922034
0.027334087 0.08109762 -0.006716389 -0.022061622 0.060076416 -0.021712495 0.012566536 0.03811332
0.037726697 -0.015646638 -0.035912182 0.050114963 0.05028498 -0.062948085 0.037153263 -0.06197547
0.024517156 0.000484112 -0.0008445698 0.01750156 -0.06300436 0.0556988 -0.006238622 0.006880956
0.00075996603 -0.066263966 0.013865129 -0.020854242 -0.044134613 0.028467948 0.00021580637 -0.05197382

0.2.bias f4 [16]
00000000: d191 1bbd c94e dcba b274 25bd d098 c13d
00000010: 4a37 0a3d bf15 883d dc58 e03c 86aa 1dbe
00000020: 9dbe bfbd 0d9b 213e 6213 52bd a51c adbd
00000030: 3a1c 623c 862d 4bbb 13ad 12bd 7c39 2abe
-0.03798086 -0.0016808148 -0.040394492 0.09452975 0.033744134 0.06644773 0.027386121 -0.15397081
-0.093625285 0.15781803 -0.051288016 -0.08452729 0.013800675 -0.0031002476 -0.035809588 -0.16623491

0.2.running_mean f4 [16]
00000000: 0400 0000 8254 833b 7d12 c43f 97d8 663f
00000010: 099e 333f 0b12 513c 9a1c a540 8a54 9f3d
00000020: 5a01 313f 4669 f73f 0aa9 8b3e 713a 8a3f
00000030: 8c80 153f c6ca 4b3e b488 473b 00ff 353a
6e-45 0.004007877 1.5318142 0.9017424 0.7016302 0.012760649 5.1597414 0.077797964
0.6914269 1.9329002 0.27277404 1.0799085 0.5839927 0.1990157 0.0030446472 0.00069426

0.2.running_var f4 [16]
00000000: 0400 0000 0d73 703a 74d8 ad3e b411 203e
00000010: d82b 843d 3b12 043c 69d2 9f3f dad3 0d3d
00000020: 362a 5f3d c003 913e b84e 023c b1c2 133e
00000030: 26cf 153d 34be cd3d 5492 903a 3cc9 ba39
6e-45 0.00091724173 0.33954203 0.15631753 0.06453675 0.008060987 1.2486087 0.034625866
0.054483615 0.28323174 0.007953338 0.14429738 0.036574505 0.10046044 0.0011029937 0.00035626616

0.2.weight f4 [16]
00000000: 2a46 503f 249d 733f 2055 793f d2c1 8f3f
00000010: d712 873f 4e62 6c3f ef2d 7f3f 2719 863f
00000020: 6bdc 873f c8bf 843f e186 823f 4e2c 923f
00000030: 55a2 843f 0c25 663f a851 703f 7aea 6e3f
0.8135706 0.9516165 0.97395515 1.1231024 1.0552624 0.923375 0.99679464 1.0476426
1.0614141 1.0371027 1.0197412 1.1419771 1.036204 0.8990028 0.938746 0.9332653

1.0.bias f4 [16]
00000000: 2b26 5f3d 4bdc 4dbd 8e4e 703d 4504 ce3d
00000010: 4b63 753e 9a19 553d d27a 43bb 788c a53d
00000020: 978b 203e 1ad6 98bc 825e 843d 437a 763c
00000030: b913 073e 272b a63d 2b7f 853d d6f9 713d
0.05447976 -0.050258916 0.058668666 0.10059408 0.23963659 0.05202637 -0.0029827845 0.08083433
0.1567825 -0.01865678 0.064633384 0.015043798 0.13191117 0.081136994 0.06518396 0.059076153

1.0.weight f4 [16, 16, 3, 3]
00000000: d465 5bb8 4e75 5bbd ec9e 383c 65d9 18bd
00000010: 875e 11bd 5832 ab3d 3695 a03c 69d2 31bd
00000020: 8dc5 a9bd 7ffe 08be 223d 53bd 97aa 9cbd
00000030: 9a35 f6bd 9e28 aabd acd2 933c 20a9 ecbc
00000040: c5b5 3f3d bb93 71bd 115f a23c 08e3 87bd
00000050: 0e3b a43c 5a5d a83d 73bd 63bb ff52 08bd
00000060: d13a eb3d 8949 7e3d 1629 dc3d bce2 6cbe
00000070: 0780 0dbe e493 26be 7a09 263d c05f 8c3d
00000080: 8bdb b03d c64a df3d 6005 ac3c e7e1 f03d
00000090: 6cd8 ba3d 6664 5c3d 41c5 17bd 6600 273e
000000a0: c821 54b9 f9b3 e5bd a151 5a3d 6627 0cbe
000000b0: 5850 31be 9413 14bd 0db3 3fbd bda7 9dbb
000000c0: 1fe6 7a3d a861 c4bd 09dd 13bd 12ba d93a
000000d0: 9507 603c 076a abba 4b36 31bc db08 163c
000000e0: 7d37 0abd 6858 1f3d 4e5d 2fbc f924 003c
000000f0: 0800 983b fd87 8a3d c5f4 073e e2e6 d4bc
00000100: 1beb 883d baf5 90bd a85d bf3c aaf1 9a3c
00000110: fc6e 75bd eb7f d5bc f1ad 58bd 58c0 dabd
00000120: f38d f73d dad9 693e 7961 063e 5efe 6cbd
00000130: e5e3 6fbd 0dfb 06be e059 953d 2a4e afbd
00000140: 3006 d5bd 914b 08be fe96 70bd 202a 28bd
00000150: 0aee 9e3d 913d 743d 93b4 fc3d 97fa 0a3d
00000160: 013a 503e 52dd 553e 3e88 4b3d 8e00 013d
00000170: 2437 5b3e d3fe a33c 8e65 20be 1ec9 8a3b
00000180: 4503 1abd a81d 13be 1127 8c3c 05f1 683e
00000190: 7796 5a3e 3d50 863e 46e2 383e 122b 25bd
000001a0: 3398 1bbc ba97 eebd 80e0 76be 6e99 63bd
000001b0: 4d74 713d a5a3 053e 6593 d03d cf30 07be
000001c0: ecae 76bd 4c2a 5bbd 7452 2dbd 75c3 86bd
000001d0: 68b2 72be 8994 803d 0372 ae3d 0871 adbd
000001e0: db1a 893c 21ac dbbc 37b0 083d 468c 8cbc
000001f0: 4972 adbd 802f d7bc 59c0 07bd 0fb7 b63c
00000200: aa75 14bd 16d6 ab3d 0ae2 7a3d 5cc2 a9bd
00000210: 238f 22bd 8f23 a83c 7402 293a 68fd edbc
00000220: 5f54 d8bd 6b60 f2bd c1b4 42bd 6d2b 1cbb
00000230: f46a 41bd 288c 1abd 1e2b 873c ab74 cd3c
00000240: cdff 54bc 2aae 90bd ffb4 a9bc 9cee 9ebd
00000250: 4abc 8bbd 75f7 f83c 0969 bdbd a5b0 b93c
00000260: 43a1 4fbd f31f d83c 220f cf3b aa93 e93d
00000270: 0280 bd3d 97c6 553b b0b9 4c3c f93d 603d
00000280: 4c6c fe3d d755 b7bc 1daf 23bd 057f 17bb
00000290: 1f84 f83c c281 aebc 1b10 9d3d 4215 3b3c
000002a0: 6410 11bd 1663 313d 44cc 683d 1865 92bd
000002b0: 8e9e 89bd bbaf 8fbd 8632 353d a5f0 bb3c
000002c0: fb55 1cbe 9767 0c3d 236e bdbc 4951 0abe
000002d0: 0064 d83b d520 9fbd bbe2 263d 02c2 ee3a
000002e0: 3d21 38bd 96ec 473d 93ba 9ebd c582 05be
000002f0: 4da8 613d 8d81 5abd ba9c fd3b 5efd 04bd
00000300: b284 9fbc de37 c3bb 88ac e53c c14d c7bc
00000310: 7514 073d 533d a3bd 43fb c4bc cacc 8abd
00000320: 2a31 f9bd a899 06be 3427 9fbd 20de e6bb
00000330: b511 a7bd 321b 03be 1861 91bd 3962 0a3b
00000340: 96d8 833d 2b50 313e 3bd9 c63c 5b4f 123e
00000350: 03e4 003e a5ca 0f3e f283 923d e1c5 b03c
00000360: 3460 9d3c 7652 a63d ad12 70bd 6260 573d
00000370: 8c9e 103d a397 9f3c ceaa 98bd e6ca af3c
00000380: d681 993c b361 c8bd 012c 49bc ce67 b2bd
00000390: 2277 2a3c 5e05 bf3a 927b e5bd 8604 ebbc
000003a0: b1c2 51bd caca 8fbb 77ca 8d3d 42f7 a4bd
000003b0: 5858 023d fd86 b8bd 3f4e 4fbd abe6 c4bd
000003c0: 5960 4c3d cabc 3dbd b43d c2bd b53e 61bc
000003d0: 4f49 b03d cafc a7bc 31e0 093d d2a6 153d
000003e0: 0ea8 0e3e 165a 8ebc ba75 f03d 9829 623d
000003f0: d63e c8bd 5d00 09bd b2bb 453d d8fd 0bbe
-5.2308504e-05 -0.053578667 0.011268359 -0.0373167 -0.03549054 0.08359212 0.0196024 -0.043413553
-0.08289633 -0.13378333 -0.051571973 -0.07649725 -0.120219424 -0.08308528 0.018044792 -0.028889239
0.04680421 -0.058978777 0.019820722 -0.066351 0.02004769 0.082209304 -0.0034750372 -0.033282276
0.11485828 0.062081847 0.10750024 -0.23133367 -0.1381837 -0.16267353 0.04053638 0.068542
0.086356245 0.10902934 0.020998657 0.117618375 0.091233104 0.053806685 -0.03705335 0.16308746
-0.0002023048 -0.11215968 0.053300504 -0.13686904 -0.17315805 -0.036151484 -0.046801616 -0.0048112557
0.061254617 -0.09588939 -0.036099467 0.0016611239 0.013673683 -0.0013077863 -0.010816167 0.009157385
-0.033744324 0.03890267 -0.010703398 0.007821315 0.0046386756 0.06764219 0.13276966 -0.025989
0.06685468 -0.070781186 0.023360088 0.018914063 -0.059920296 -0.026061973 -0.05290026 -0.10681218
0.120876215 0.2283701 0.1312312 -0.05785977 -0.058566947 -0.13181706 0.07292533 -0.085598305
-0.10401571 -0.13310076 -0.058737747 -0.0410558 0.07760246 0.059629027 0.12339129 0.033930387
0.20334627 0.20885208 0.049690478 0.03149467 0.21407753 0.02001897 -0.1566374 0.004235401
-0.037600774 -0.14366782 0.017108472 0.22748192 0.2134646 0.26233092 0.18055066 -0.04032428
-0.009496736 -0.11650033 -0.24109077 -0.055566244 0.058948804 0.13050707 0.10184363 -0.13202213
-0.060225412 -0.053507134 -0.04231496 -0.06580249 -0.23700869 0.06278331 0.0851784 -0.084688246
0.016736438 -0.026815476 0.033371177 -0.017156731 -0.08469064 -0.026267767 -0.03314242 0.022304086
-0.036245026 0.08390443 0.061250724 -0.08289024 -0.039687287 0.020524768 0.0006447204 -0.029051498
-0.105629675 -0.118347965 -0.04753566 -0.0023829595 -0.04722114 -0.03773132 0.016500052 0.025080046
-0.013000441 -0.07064469 -0.020716188 -0.07760355 -0.06823023 0.030391434 -0.092485495 0.022667238
-0.0506909 0.026382422 0.0063189426 0.11405118 0.09252931 0.003261959 0.012495443 0.0547466
0.12423 -0.022379799 -0.039961923 -0.002311648 0.030336438 -0.021302108 0.076690875 0.0114186425
-0.035416022 0.043307386 0.056835428 -0.07148188 -0.06719695 -0.0701594 0.044237636 0.022941897
-0.15267174 0.03427848 -0.023123806 -0.1350757 0.006603718 -0.07769934 0.04074357 0.0018215778
-0.044953573 0.04880961 -0.0775043 -0.13038166 0.055092145 -0.053346206 0.0077396305 -0.032468192
-0.019472454 -0.0059575876 0.02803637 -0.024329068 0.032978494 -0.07970681 -0.024045592 -0.06777342
-0.121675804 -0.13144553 -0.07771149 -0.0070455223 -0.08157674 -0.12803343 -0.07098597 0.0021115674
0.06437795 0.17315738 0.024273505 0.14288084 0.1258698 0.14042147 0.07154073 0.021578731
0.019210912 0.08121197 -0.05861156 0.052582152 0.035307452 0.019481486 -0.074544534 0.021459054
0.018738668 -0.0978426 -0.012278558 -0.087112054 0.01040438 0.0014573743 -0.1120521 -0.02868868
-0.051211063 -0.004388188 0.06923383 -0.08054973 0.031822532 -0.09010122 -0.05061173 -0.09614309
0.04989657 -0.04632262 -0.09484425 -0.013747861 0.086077325 -0.020506281 0.03366107 0.036536045
0.13931295 -0.01737694 0.117412046 0.05521545 -0.0977761 -0.033447612 0.048274703 -0.13671052

1.2.bias f4 [16]
00000000: 822f 9bbd ec53 09bd f446 703b cf25 fb3c
00000010: e55c b4bc 625d bbbd 3080 13bd 9de1 073c
00000020: c65b ba3c bd9b 97bd a1a4 c13c 3d52 68bd
00000030: ac0e 36bc d25f c5bc 1fb6 d0ba e031 08bd
-0.07577421 -0.0335273 0.0036663385 0.030657677 -0.022016952 -0.09148671 -0.03601092 0.0082935365
0.02274884 -0.074027516 0.023638071 -0.056719054 -0.0111118965 -0.024093542 -0.0015923417 -0.03325069

1.2.running_mean f4 [16]
00000000: e4a9 e23e 7c60 4c3f db44 b33f 30af 403f
00000010: b55b 083f 4f45 b53f 7a5e c43f 8038 b13f
00000020: 6b41 493f 473b 013f e37b 1f3f eaa2 7d3f
00000030: ad9f f03e 7bc1 8f3f feab 9c3e 99d2 b23f
0.4427024 0.79834723 1.4005388 0.75267315 0.53264934 1.4161776 1.5341332 1.3845367
0.78615445 0.50481075 0.6229841 0.9907671 0.46996823 1.123092 0.3059997 1.3970519

1.2.running_var f4 [16]
00000000: 196e 403e 3fe6 3e40 b31a 4b40 76c9 6940
00000010: ca0a 4e3e 61f8 8f40 10e5 2841 ded9 7140
00000020: f038 ed3f e16b 683f 9555 763f fb50 a040
00000030: d9c7 5d3e 4685 4740 8d34 323e 6a90 ad40
0.18791999 2.982803 3.1735046 3.6529212 0.20121303 4.4990697 10.555923 3.7789226
1.8533001 0.9078961 0.9622434 5.0098853 0.21658267 3.1175094 0.17402859 5.4238787

1.2.weight f4 [16]
00000000: 9350 8a3f 64f6 6a3f b667 853f 5185 733f
00000010: bb99 8f3f 3423 803f 9ed2 823f aba2 6d3f
00000020: e33a 7e3f 4b43 723f 753c 853f 0ef0 693f
00000030: 4e79 763f ebe0 7c3f 2b37 8a3f 916e 7f3f
1.0805839 0.9178221 1.0422275 0.951253 1.121879 1.0010743 1.0220525 0.92826337
0.99308604 0.9463393 1.0409075 0.9138192 0.96278846 0.987807 1.0798086 0.99778086

2.0.0.bias f4 [16]
00000000: bbec a23d 1796 183e a441 a53d 0521 ec3d
00000010: 26fd 67bc d3ad c4bb 5d60 c9bc 5202 25bd
00000020: 67a0 a73d 9926 983d 3a3f 2a3d 9e42 e83d
00000030: bb4a cb3d c035 403d 88d5 c43c 5588 3c3d
0.07955309 0.14901005 0.080691606 0.115297355 -0.014159476 -0.006002167 -0.024582082 -0.040285416
0.08184891 0.07429237 0.041564204 0.11340831 0.09926363 0.04692626 0.0240276 0.046028454

2.0.0.weight f4 [16, 16, 3, 3]
00000000: 5fc3 083e dd61 5b3e c0a1 e73c 8d29 f53c
00000010: 9c8c d93d d286 273d 1c06 b7bd 0fc7 a0bd
00000020: abad e6bd 8aad a5bd a3be 75bd 6659 10bd
00000030: 5dd9 a4bd 4053 783d 31d7 d23c 6a54 53bd
00000040: 5e51 f7bc 5380 b9bc 5c1f dc3d 4d47 cd3d
00000050: a911 65bd 258b 113d 0897 363d 654d fe3b
00000060: 0d85 203d 2953 2fbd d5ac c0bb a1d2 09bb
00000070: 4787 b93d 7e50 7fbc fd57 92bd c9d1 f4bc
00000080: 6d0b 1a3c a200 a3bd cc4d 3f3d 6bce 603c
00000090: 0675 1d3e b5e1 a43d 24e6 a3bd f20c 003d
000000a0: b497 d83c 69f0 8ebc 279a 1d3e 24b7 0bbd
000000b0: bc2f d3bd ce12 9abb 8649 e6bd 1a55 1ebe
000000c0: 197d 943b d0ef a0bc 4530 a4bc 5cb7 39bd
000000d0: 8ca4 f73c 11e2 afbd 1ac8 35be c712 813b
000000e0: edde 8abd 3e39 793b 32e0 373d 4dd4 543d
000000f0: 9885 03bd 22c3 d23d 67b5 0b3d 69ca bf3d
00000100: a3a5 74bd bebe 3a3d 41f1 8e3d 563a 03bd
00000110: 22fe 74bd 6514 dc3c 75b2 5ebd f2bf 25be
00000120: 8f17 f4bb b8ba 12bd a230 e8bb b45f 00be
00000130: b257 40bd ee52 bdbc 43b6 c2bd cf73 203d
00000140: 21e0 abbc 09bd 803d 0cdb 233c 3c54 93bc
00000150: 06fc 4c3c 2058 6d3d 1242 7bbd 27f8 ce3d
00000160: 9c21 9a3b 80a5 173c 2578 1cbd ca9e a53d
00000170: 1a5e 3c3e e439 e3bc d483 bebc d2ff 353e
00000180: 59c6 0bbe ed52 faba a3cd a43d ae41 f13b
00000190: 134e 503d e52a d6bb 0c69 babc f45c 553c
000001a0: 896b 4b3d c62c f6bc b3f3 4abd 9a5e 37bd
000001b0: 387a 583d 4033 3cbc 4971 2bbd db0c 8d3d
000001c0: 85d8 033e 5e46 ac3d dc26 e53d 6915 d23c
000001d0: 92a4 35bd 8dc0 323d c492 2c3e 3fef 1b3d
000001e0: d0eb 223e 4698 c63d b3d2 ee3d 8bbe d73c
000001f0: 815d 98bc 3bd5 92bc 0bff 50bd 3193 17bd
00000200: ae25 36bc a81b 663c 4e81 a5bd e93b f9bb
00000210: ba99 76bd 573a 823b 8693 c63c d19a fcbd
00000220: 600a 153d 4908 743c 81f9 e7bc 3801 9c3b
00000230: 748e 923d bb84 9cba 5d24 81bd 9c4f a0bc
00000240: 5b5e 22bd 40f5 ee3b 0e18 9a3d 8779 8cbd
00000250: 2179 65bc bf90 573d c23f 28bd fcd2 143d
00000260: 88a4 a13c 9e91 473d 558c 9bbc ba4f 5dbd
00000270: 5a8b 0a3d 6f60 bf3d 6706 27bd d58e 12bd
00000280: 98b4 6e3d e89c c7bc 31c3 87bb 4108 8a3d
00000290: 30eb 173c 3fc8 953b 009a ef3c 1230 0e3e
000002a0: 4271 d5bc 5ea5 a43d 6329 5e3c e477 173d
000002b0: 6e95 633d ba8f 023d 9be4 b8bd ebd0 71bd
000002c0: 27c2 58bd e8dc 7f3c 5a2f 453d 78ca c33b
000002d0: d049 93bd dc4a 103e 504e 053e 59d4 02be
000002e0: 866a 003c d695 dcbc df0d 5e3d 4f0d 283d
000002f0: 93af 963d 6c39 df3c da55 24be a941 4bbe
00000300: a392 78bd 5100 9abd 563f adbd c168 033d
00000310: 0dec 223d 51e0 3a3d 54a3 883c 9f97 85bc
00000320: bf91 933c 14f6 843d 4d38 56bc 7b39 93bc
00000330: 0bc2 b7bc afbe aabc 3bc9 4bbd ff69 34bd
00000340: b58f 06bb 9d40 433d 957f b0bd 6b66 83bd
00000350: a617 8bbc 2675 2f3d 9944 a6bc 2026 823d
00000360: 6df1 023d 7dba 883d ebf0 c03d c78c 03bc
00000370: 5b8c 4bbc ed6a c5bd f55a 563c fd24 53bd
00000380: bd6d e2bd 11fc 1b3d 6592 95bd f7b4 a13d
00000390: 8e3c 1b3c fcb4 703b 3801 a33d c9d3 9e3d
000003a0: e829 263c d967 053d d503 923c 3212 313d
000003b0: 277e 0d3d dac9 b63d d899 a03d d9c8 383d
000003c0: e953 1d39 158c 86bd bd61 ec3b 4316 eebc
000003d0: 04e0 723d dd4d 3e3d 640f dc3b 6dc5 653c
000003e0: be30 52bd 4c97 53bd eb0a 34bd 5831 f2bb
000003f0: 8c48 3e3d 8410 973d d886 3bbd e2eb 38bd
0.13355778 0.2142405 0.02827537 0.02992704 0.10622522 0.04090006 -0.08936712 -0.078504674
-0.11263593 -0.080897406 -0.05999626 -0.035241507 -0.08049271 0.06062627 0.025737377 -0.051594175
-0.030190166 -0.022644198 0.10748169 0.10023365 -0.055925045 0.03553309 0.04457763 0.007760691
0.039189387 -0.042803917 -0.005879978 -0.0021030086 0.09059005 -0.015583156 -0.07145689 -0.02988519
0.009402138 -0.07959105 0.046705052 0.013721089 0.15376672 0.08050863 -0.0800288 0.031262346
0.026439525 -0.01744862 0.15390836 -0.034110203 -0.10311839 -0.0047019487 -0.11244492 -0.15462151
0.0045315144 -0.019645602 -0.020042548 -0.04534088 0.03022983 -0.085880406 -0.17752114 0.003939006
-0.06780801 0.0038028504 0.044891544 0.05196028 -0.032109827 0.10291125 0.034108546 0.093647785
-0.059728276 0.045592062 0.06979609 -0.032038055 -0.059812672 0.026865194 -0.05436941 -0.16186503
-0.0074490975 -0.0358226 -0.0070858756 -0.12536508 -0.046958633 -0.023110833 -0.0950742 0.039172944
-0.020980896 0.062860556 0.010000955 -0.017984502 0.012511259 0.05794537 -0.061342306 0.10105925
0.0047037136 0.009255767 -0.038200516 0.08086927 0.18395272 -0.027737565 -0.02325622 0.17773369
-0.13649882 -0.00190982 0.080470346 0.007362566 0.050855707 -0.006535875 -0.022755168 0.01302265
0.0496631 -0.030050647 -0.049548816 -0.044767953 0.052850932 -0.011486828 -0.041856084 0.068872176
0.12875564 0.08411859 0.111890525 0.025644975 -0.0443464 0.043640662 0.16852862 0.03806996
0.15910268 0.096970126 0.116612814 0.026335975 -0.018599274 -0.017923942 -0.051024478 -0.037005607
-0.011117382 0.01404468 -0.080813035 -0.007606019 -0.0602052 0.00397424 0.024240267 -0.123342164
0.036386847 0.014894553 -0.028317215 0.0047608875 0.07156077 -0.0011941412 -0.06305764 -0.01956921
-0.039640766 0.0072924197 0.07524119 -0.06859117 -0.01400593 0.052628275 -0.04107643 0.036334023
0.019731775 0.048722856 -0.018987814 -0.05403111 0.033824302 0.09344565 -0.04077759 -0.035780746
0.058277696 -0.02436681 -0.0041431417 0.067398556 0.009272382 0.0045709903 0.029248238 0.13885525
-0.026054982 0.08039354 0.013559672 0.03697957 0.05556243 0.03187535 -0.09027978 -0.05903713
-0.052919533 0.015616633 0.04814086 0.005975064 -0.07191813 0.14091057 0.13018155 -0.12776317
0.007837897 -0.026926916 0.054212447 0.041028317 0.07357707 0.02724906 -0.16048375 -0.19849266
-0.06068672 -0.075195916 -0.08459346 0.032082323 0.039775897 0.04562408 0.016679443 -0.01630765
0.018013833 0.06492248 -0.013074947 -0.017971745 -0.022431394 -0.020842878 -0.049752455 -0.0440464
-0.0020532433 0.047669042 -0.08618084 -0.06416019 -0.01697905 0.04283633 -0.020296382 0.06354928
0.031968523 0.06676195 0.094209515 -0.008029169 -0.0124236 -0.09639535 0.013083209 -0.051548947
-0.11056087 0.038082186 -0.07303313 0.078958444 0.009474887 0.003672897 0.07959217 0.077552386
0.010141827 0.03256974 0.017824093 0.043230243 0.034544136 0.08925219 0.07841843 0.04511342
0.00015003946 -0.06569687 0.0072137997 -0.02906335 0.05929567 0.046460975 0.006715702 0.014024121
-0.051316015 -0.05165796 -0.043955725 -0.007391136 0.046455905 0.07376197 -0.045782894 -0.04514683

2.0.2.bias f4 [16]
00000000: 8d66 42bc 2ae1 9f3c 2ca3 393c 12f5 e23c
00000010: 166d 1dbc 78bd 69bb a6bb aebb 9174 82bc
00000020: d5f2 e73c 0cae d53c 8139 753d 3717 b53c
00000030: 5c3f 033c ed58 1b3c 9d6b 20bc 18eb fe3c
-0.01186527 0.019516546 0.011330407 0.02770475 -0.009608528 -0.003566591 -0.005332428 -0.015924724
0.028314034 0.026083969 0.059869293 0.022105796 0.0080107115 0.009481651 -0.009791282 0.03111796

2.0.2.running_mean f4 [16]
00000000: ad68 043f 63cb 923e d50d 1e3f decb ac3e
00000010: ea3b 803f b1f0 0c3f 7096 573f 3f0e 203e
00000020: f5f9 a23e 3f1e 083f 71ef 263f 3b91 913f
00000030: ebf8 3b3f bcea 723f 58a0 323f 0a37 3b3f
0.5172222 0.28670797 0.61739856 0.33749288 1.0018284 0.55054766 0.84213924 0.15630434
0.31831327 0.5317115 0.6520911 1.1372446 0.73426694 0.94889426 0.69775915 0.7313086

2.0.2.running_var f4 [16]
00000000: 6f3e 2b3f 3950 0d3e 4022 153f 2522 103e
00000010: 8e9a 733f 0d36 8b3f b95d 813f 3544 083e
00000020: dd77 df3e 8e0f 1a3f 2555 513f 457f c13f
00000030: c573 6b3f 3d2e 643f 5d6c 293f d1ec 413f
0.6689214 0.13800134 0.58255386 0.14075525 0.95157707 1.087587 1.0106727 0.13307269
0.43646136 0.60179985 0.81770545 1.5116965 0.91973525 0.89133054 0.66180974 0.7575198

2.0.2.weight f4 [16]
00000000: 7ab2 833f 2e71 873f b532 813f d583 723f
00000010: 786b 7c3f 9f41 763f 761c 763f b809 873f
00000020: 9fd7 7c3f a016 893f 62eb 7d3f e96a 703f
00000030: 78a3 823f 01e3 6e3f 25cf 7e3f 2461 883f
1.0288842 1.0581415 1.00936 0.9473241 0.98601484 0.9619388 0.9613718 1.0549841
0.9876651 1.071003 0.9918729 0.9391313 1.0206137 0.9331513 0.9953483 1.0654645

3.0.0.bias f4 [16]
00000000: 3d1e e63d bea6 28bd de25 213d a908 f53d
00000010: d987 2b3c 88a0 07bd 3d4b 323d 0548 853d
00000020: 298a cebc 47c3 163d e854 153d 5a68 233e
00000030: dd9d 8fbc 3091 2c3d 62b2 5b3e d573 8a3d
0.11236236 -0.041174643 0.039342754 0.119645424 0.0104694 -0.03311208 0.043528784 0.06507877
-0.025212364 0.036807325 0.036457926 0.15957776 -0.01753133 0.04213065 0.21454766 0.067603745

3.0.0.weight f4 [16, 8, 3, 3]
00000000: 0755 bbbd e854 0ebe 12d8 cebd f9b9 983d
00000010: f08b b43d 4a15 663e 7a05 b4bc 78b5 d43d
00000020: aa1a 353e d1e9 ccbd 3a45 9b3d 8c2f eb3d
00000030: 929c 29bd 080e 5a3e dfdf a73d 1e42 03be
00000040: 3022 8bbd b817 d1bd 675d 5c3d 49b8 c23d
00000050: 3066 50bd deb1 aa3d ea07 8e3d 0445 12be
00000060: b68c 3ebd ee84 2b3e 78d5 52bd 3ea2 863e
00000070: 0dba 643d 63cc 0e3e c768 1cbc 6f4b 74bd
00000080: 31d8 b9bd a064 f23d d5a9 abbd f1d4 39bd
00000090: bad6 94bd bad8 423d 1d64 883d 547d 943d
000000a0: e975 f83b 5af7 bdbd 38d9 55bd 9b3e 27be
000000b0: 9233 0cbe 3e44 2abe 3306 b4bd fcb5 cabd
000000c0: 27fc 4abd ae71 5d3d 81cf fcbd ca03 8abd
000000d0: a934 06be c02b b53d b53f 9f3d 9546 b23b
000000e0: dd1d 483d 5a95 fb3a 9d77 b73d d377 bbbd
000000f0: c050 343e efb0 133e c7fa 48be b59b fd3d
00000100: e10e 943c 6a08 95bd 4c0a c13c dbac e4bd
00000110: 71fc 93bd bd54 9cb8 4faa 3abd 7e69 48bc
00000120: 99d9 e5bd 7290 283e 9703 273b eefd 093d
00000130: ca22 283e c576 b2bd 8972 57bd 5759 67bd
00000140: c61b 9dbd 431f 5b3d f7af ccbd e437 86bd
00000150: 72bd 813d e8cc 5abc 65b1 a33d 90f5 9dbd
00000160: 63f1 a33d 18b1 a1bd f7ef ec3d f74e b9bd
00000170: 4ae7 99bd 8086 703d 30df d63c bec7 83bd
00000180: 54f4 053d 699f ddbd 641b 92bd 7d9a 1c3e
00000190: a213 1d3d a97e 07bd 5fdf d53d 4b9f 0fbe
000001a0: 22f3 253d 4701 d1bd b534 60bd 405e a4bd
000001b0: 8a65 933d 9d60 6a3c 5cd1 9f3d 0c83 973d
000001c0: 6969 1bbe bc3a 14be dda9 84bd 35d1 96bc
000001d0: 9f7c a5bd fb73 d1bc 7f99 09be 525c db3d
000001e0: 96b8 1cbe 47b8 87bd fb70 42bd 4b9c 96bb
000001f0: 4a6d d2bd e3aa 70bd 361d b23d 817e 8ebd
00000200: 3f83 8bbd 31a8 2ebd 6429 3bbd 645e ba3d
00000210: 9e17 95bd cc0c c83c 8e01 813d 1b2e a4bc
00000220: e6e0 edbb 937d 37bd 8782 cf3d fd71 e4bc
00000230: 0c6f e43a 915f 4bbb 57f6 e73d 5339 cdbd
00000240: 52cb 913c d932 dcbc 1aaa 05be 0ce3 cd3d
00000250: ffb9 45bd 2b92 623d 369b e1bd a2bb f73d
00000260: 68c4 023e cdb2 19be 5f0a 86be b4a3 a7bd
00000270: eaba 253b ec3d d33d 71ea afbd 9985 363c
00000280: 8726 3c3e 236d 283e 4eba ac3d d40d fbbd
00000290: 0ae7 44be 2a84 f53d ae07 013e 2a4d 943d
000002a0: 0d93 b43d a74e 52bc 070e b53d ead2 06be
000002b0: 55c4 e13d 3a64 4a3e 18cf 7bbd ec9a 31bd
000002c0: 71ca 0d3d 1560 9abd 86ec 433d 87c0 f5bb
000002d0: 298b 6f3d dd8a 7e3c a68b 26bd 79b6 d2bd
000002e0: 5f56 f5bd c867 b53b 0f9c 663c ae58 06be
000002f0: 4e27 30bc 09e2 653d 88d7 2c3e 8223 25bd
00000300: 72ba 443d f973 ff3c 7dee 95bd 7c54 813c
00000310: a4fa 3cbe f4a7 223e 04df a1bd 55d0 e03d
00000320: 3f1c 74bc bccb 9ebd 188a 2d3d 470c 9bbd
00000330: 823a bdbb c294 0e3c c015 8bbd eedc 3ebe
00000340: 4d26 fdbc d48f 9abd 5202 49be c9f7 d43d
00000350: 6dc7 fd3d 6079 c3bd 08c3 273e 87f7 a83b
00000360: 2e46 10bd b945 cebd 6189 9d3d 7d0a 85bd
00000370: 95ec f63c 88a9 cfbd 2277 87bd 2dae 36bd
00000380: 4fcb 0fbe 26a7 1b3c 5cd0 3a3d 1c8f b73d
00000390: c5b9 723d a2a7 033e c0cf 98bd 6da0 aa3d
000003a0: 4be4 8ebc 7838 06be 0264 21be 0d8b ac3c
000003b0: 00eb 503c b8e5 f13c b02e cbbd 2891 3db9
000003c0: 4cad 9ebd bfed 83bc 23e0 e1bd 926b 1d3d
000003d0: 2e3a cdbb 489d 063e bdc0 c7bd 00d7 42bd
000003e0: 782d afbc a5a7 323c 8bfc c3bd 9d58 46bc
000003f0: 07cf 0b3e 8256 db3d 6a2e f7bd 627a c43d
-0.09147077 -0.13899577 -0.10099806 0.074573465 0.088157535 0.22469059 -0.021975268 0.10386175
0.17685953 -0.100055344 0.07581563 0.11483678 -0.041409083 0.21294415 0.08196997 -0.1281819
-0.0679363 -0.10209602 0.053800013 0.09507806 -0.050878704 0.08334707 0.06935103 -0.1428414
-0.04652091 0.16749927 -0.05147311 0.26295656 0.055841494 0.13945155 -0.009546465 -0.05964225
-0.09074438 0.11835599 -0.08382002 -0.045369092 -0.07267518 0.047569968 0.0665972 0.07250467
0.0075824154 -0.09275694 -0.05220911 -0.16332476 -0.13691548 -0.16627595 -0.08790245 -0.09897992
-0.049556877 0.05406349 -0.12344266 -0.06739004 -0.13106026 0.08846235 0.07775823 0.005440543
0.048856605 0.001919429 0.08958361 -0.09153714 0.17608929 0.14422964 -0.19626914 0.123832144
0.018073501 -0.072769955 0.02356448 -0.11165782 -0.07225884 -7.4544434e-05 -0.045572575 -0.012232183
-0.11223144 0.16461352 0.0025484317 0.03368943 0.16419521 -0.0871406 -0.052599464 -0.056481685
-0.07671313 0.05349661 -0.099945 -0.06553629 0.06334962 -0.0133545175 0.0799282 -0.07712853
0.08005025 -0.07895106 0.11569207 -0.090482645 -0.07514818 0.05872202 0.026229471 -0.06434582
0.032703713 -0.10821421 -0.071341306 0.15293308 0.0383488 -0.033079777 0.10442995 -0.14025609
0.040515073 -0.10205322 -0.054737765 -0.08025789 0.071971014 0.014305261 0.07803604 0.07398042
-0.1517693 -0.1447553 -0.06477711 -0.018410305 -0.0808041 -0.025568 -0.1343746 0.10710968
-0.15304789 -0.06626945 -0.047471028 -0.0045962683 -0.102747515 -0.05875672 0.08696978 -0.069577225
-0.068121426 -0.04264087 -0.04569377 0.09100035 -0.07279895 0.024420165 0.06299125 -0.020041516
-0.007259476 -0.04479749 0.10132318 -0.027886385 0.0017428114 -0.0031032304 0.113262825 -0.10020699
0.017797146 -0.026879715 -0.1305317 0.100530714 -0.048273083 0.055315178 -0.11015932 0.12096335
0.12770236 -0.15009613 -0.26179788 -0.08185521 0.0025288411 0.10314545 -0.08589638 0.011140251
0.18374072 0.16447882 0.08433972 -0.12258497 -0.1922876 0.11988099 0.12600586 0.072412804
0.0881711 -0.012836135 0.08840566 -0.13166395 0.110237755 0.19764796 -0.061476797 -0.043360636
0.03461689 -0.075378574 0.04783299 -0.0074997577 0.058482323 0.015536037 -0.040660523 -0.1028871
-0.119793646 0.0055360533 0.014075293 -0.13119766 -0.0107515585 0.056123767 0.16879094 -0.040317066
0.04802937 0.03118323 -0.07320879 0.015787356 -0.18454987 0.15884382 -0.07903865 0.10977236
-0.0148993125 -0.07753703 0.042368025 -0.07570701 -0.005774797 0.008702459 -0.06791258 -0.18638965
-0.030902052 -0.07546964 -0.19629791 0.10398824 0.12391553 -0.09544635 0.16382992 0.0051564607
-0.03522318 -0.10071892 0.076922186 -0.06496141 0.030142108 -0.101397574 -0.0661452 -0.0445997
-0.140424 0.0095003005 0.045608863 0.08962843 0.059259195 0.12856916 -0.074615 0.0833138
-0.017442843 -0.13107479 -0.15760806 0.021062398 0.012751341 0.029528484 -0.09921014 -0.0001807852
-0.077478975 -0.016104577 -0.11029079 0.038432665 -0.006263039 0.13145936 -0.09753559 -0.04756832
-0.021383986 0.010904227 -0.09569653 -0.012106088 0.13653193 0.107098594 -0.120694 0.09593655

3.0.2.bias f4 [16]
00000000: 8e21 c43d f038 34bd d26f 093e 2f78 1c3d
00000010: e9b4 dfbc da7a 6cbc d482 203b ccd0 9b3c
00000020: ad8a 53bc 1e6b 1f3d eb8e ebbc 8699 083d
00000030: 8c56 233d a610 943c 32a6 a93d 3bdb 523c
0.095767125 -0.043999612 0.13421562 0.038200554 -0.027307944 -0.014433587 0.0024492042 0.01902046
-0.012911481 0.038920514 -0.028754672 0.033349536 0.03987746 0.018074345 0.08283652 0.012869651

3.0.2.running_mean f4 [16]
00000000: aec6 e03e 799b 093e d52a af3e ac84 8e3e
00000010: f6c7 6c3e 4907 763f 010a 173f 21b6 8c3f
00000020: f50b 0d3f f11f 2d3f c032 193f cb29 ed3e
00000030: 9680 943e 2dcd 663e c52f f43e 5039 d93e
0.4390158 0.13438214 0.34212366 0.27835596 0.23123154 0.96104866 0.5899964 1.0993081
0.5509637 0.67626864 0.59843063 0.46320948 0.29004353 0.22539206 0.47692695 0.42426538

3.0.2.running_var f4 [16]
00000000: 8959 f73e dbcf b33d 948d d53e bd37 253e
00000010: dcec 513e 0250 2640 2eb9 883f c9f0 c63f
00000020: d953 723f 0a8b c93f aa3b 833f 7e5c 2c3f
00000030: b730 b13e 2a40 363e 601c 013f 5d0a 9d3e
0.48310497 0.0877988 0.41709578 0.16134544 0.20500511 2.5986333 1.0681512 1.5542232
0.9465919 1.5745556 1.0252583 0.6732863 0.3460748 0.17797914 0.5043392 0.3067197

3.0.2.weight f4 [16]
00000000: 283e 783f 4ce6 813f 9936 823f da2a 7e3f
00000010: fdac 813f 0a10 813f 6d67 723f 3b35 823f
00000020: 49f4 643f e433 833f 16aa 7c3f 9ae4 893f
00000030: fecd 843f 1373 7c3f dfc0 7e3f de61 743f
0.9696984 1.0148406 1.0172912 0.99284136 1.0130917 1.008302 0.94689065 1.0172495
0.8943525 1.0250211 0.9869703 1.0772889 1.0375364 0.9861309 0.9951305 0.95461833

4.0.0.bias f4 [16]
00000000: cfae 673e 225d 4c3e 407a 783d 9fe8 a13d
00000010: 8dd5 673e 1f20 253c a7b9 b7bb 00af ba3d
00000020: d214 7ebd 4f98 9c3e 220d 453e 65fb 1e3e
00000030: 9ac1 803c 1929 1a3e 55e0 2e3d 7a3b ab3e
0.22625278 0.19957402 0.06066346 0.07905697 0.22640057 0.010078459 -0.0056068483 0.0911541
-0.062031575 0.30584952 0.19243291 0.15525587 0.015717316 0.1505474 0.04269441 0.33443815

4.0.0.weight f4 [16, 4, 3, 3]
00000000: 37d9 6bbb 378d cd3d 9f05 6abe 4bcd 13bd
00000010: 5774 07bd 94e8 e2be 4b8c 523e eb8c 2d3e
00000020: 9bbb 2c3e 806f f13d 432e 08be 2f98 d83d
00000030: c9a8 53be 2751 3fbd 7b0f 6bbb 2e42 073e
00000040: cff9 bc3d dd1a 07be a978 f1bd 7d62 d43c
00000050: 8a9d b0bc 6d79 673e 8d2e a63e 61d2 483e
00000060: 9a13 52be 0338 903e 95bf 5cbe ef72 d63d
00000070: 701d 57be 72a6 34be 7730 7f3e 1b82 29be
00000080: 0d3a 61be 14fb 773d 061b 8f3b 1c0b 9d3e
00000090: 2744 0ebe 4cd4 44be 91c4 553e a8c9 673e
000000a0: cd09 a93d 963b 213e 9134 253e e027 80be
000000b0: 887f e4bd a209 dcbc 2a7d e1bc 29de 3d3e
000000c0: 9d6f 22be 7779 3e3e f67e db3d 2ff6 c6bd
000000d0: 8a61 37bd 690c 1abe cd44 56bc 0eeb 733d
000000e0: cd05 eb3d 2885 ff3d 4100 44be ce85 36be
000000f0: 6f1f b3bd 8db3 153e ae1c 9ebd 5083 8fbd
00000100: 9c58 ffbd c285 223e 7a01 a3bd 65ef 7b3d
00000110: c597 0bbd 21bf 363d 7471 f53d 8e87 9bbd
00000120: 667f 34bd 411d 86bd 8863 dbbd b958 f9bd
00000130: a4b6 75bc cb14 f6bc 1fc4 1f3d a323 a2bd
00000140: 42ae 3a3d 3ac0 18bd 0a36 58bd 6ae5 bb3c
00000150: f908 e4bd ccf8 24bd e194 233d 0ac1 4abd
00000160: 673f 393d 45af 553c 690e 083e 50e7 06bd
00000170: 7e98 2b3b e662 8e3c ad74 2ebd 10b2 79bd
00000180: 8c6a b33e 5673 6d3e bbb2 223e f099 1cbe
00000190: 4546 abbd 3b4a 853d 3f23 fd3b a2a5 cb3d
000001a0: 3e58 e5bd b5ab 2ebe 7a51 d53a 650d 22be
000001b0: 05a1 543d 4601 31bd be50 243d 1c47 1c3e
000001c0: 96d7 573d eaca f73d 290c 803d ded4 0a3e
000001d0: 75bd 68be fe49 8dbd b98c 233c 22fa d3bd
000001e0: cf1d 583d 57d5 90bd 14e4 8a3e 49c7 b2bd
000001f0: 28da a23d 1fd3 0a3e 58dc d03c 9eaa dc3c
00000200: 7f60 fabd e369 ed3d 0d75 163e c6f0 5c3d
00000210: 33d2 f4bc 7590 113d 0f73 423e b678 63be
00000220: 03a2 063e f7f2 93bc 9ff7 9239 f129 543d
00000230: 6db3 b0bb 5e4c d1bc 45b2 d83d 9414 1a3e
00000240: bf2e 58be a8ab 0b3d a1ac f7bc 0aa1 52be
00000250: 3ef0 31be 63b9 4c3c fbc2 d6bd 4c34 cdbd
00000260: c40e 273d ae6a 383e 3b39 c43d b315 0b3e
00000270: 8b3d 2abd d09f 1dbe 6c91 423e de6f acbd
00000280: a3c3 d63d 249e b13e 51b4 cfbd 6c1e a0bd
00000290: 63a7 8a3d 5a09 983d 2f98 623c ad57 083e
000002a0: d249 033e ff80 6e3d 5ae0 083e 0844 4b3d
000002b0: 3597 a9bd 1142 ba3d f56f 0a3e f651 923e
000002c0: e3e5 4c3e 37bc 01bc 3cf7 4ebe ea36 24be
000002d0: 73a8 ffbd 4bf6 b43d 6307 893c e2de f03c
000002e0: 2dd1 163e 32cd 363e f2db 513e af5d 723d
000002f0: 72b3 1d3e 85ab 073d d0c4 91bc 8a47 d83c
00000300: 4fad 3cbd e977 32be 25e3 06bd ee7a 043c
00000310: 7427 3c3d 040b 09be b7c8 8abd 68c7 c6bd
00000320: 53e6 b03d d0b3 47be 9675 8d3d 8628 6bbd
00000330: 96cd 63bd 1281 f6bd ca19 10be 5126 313c
00000340: 5af9 3fbe a858 0dbe 052c 353d 792a 343d
00000350: 13bf 29be 2e7d f13c 9a3c 08be 1b5c bebd
00000360: a4d3 fabd 308d 8fbd ed6f b4bd ed3c 0dbe
00000370: 7129 473e 64d6 783d 8c47 eabd 9e1e d43d
00000380: 5162 dbbd c883 6e3c d419 8e3c 2d37 ecbd
00000390: 141f b33e 8703 b1bd 6670 2dbd 9109 853d
000003a0: 193d 07bc c520 b5bd 8200 9abd 1083 24bd
000003b0: a1a5 4f3c d769 113e f17e 6bbd 186b 9abd
000003c0: 8a9d 37bd 82e6 353e 698d 68bd a623 e73d
000003d0: f83e b3bd 8f0c 93bd 42fd 223e e41e fa3d
000003e0: de8b c73d 437c 5a3e b8fe 963e d7fb 3c3e
000003f0: 46f4 aabd 2bdd 8abd 31c8 e43d 82c0 9e3d
-0.0035987624 0.100367 -0.22853707 -0.036084455 -0.033069935 -0.44318068 0.2056133 0.16948287
0.16868441 0.11788845 -0.13298897 0.10575902 -0.20669855 -0.046708252 -0.0035867381 0.1320884
0.09227335 -0.13193841 -0.11790592 0.02592587 -0.021559495 0.22604914 0.3245739 0.19611503
-0.2051529 0.28167734 -0.21557458 0.104711406 -0.21007323 -0.17641619 0.24920832 -0.16553538
-0.21994801 0.06054218 0.004367235 0.30672538 -0.13893186 -0.1922161 0.20875765 0.2263552
0.082538225 0.15745386 0.16133334 -0.25030422 -0.11157137 -0.026860062 -0.027525503 0.18541779
-0.1586289 0.18601023 0.10717575 -0.097149245 -0.044770755 -0.15043797 -0.013077927 0.059550337
0.11475716 0.124765694 -0.19140722 -0.1782448 -0.0874623 0.14619274 -0.07720314 -0.07007468
-0.12468073 0.15871337 -0.07959266 0.0615076 -0.034080286 0.04461587 0.1198453 -0.075942144
-0.04406681 -0.065485485 -0.107123435 -0.12175126 -0.014997158 -0.030039212 0.039005395 -0.079169534
0.04557634 -0.037292697 -0.05278591 0.022936542 -0.11134524 -0.040276334 0.039936904 -0.049500503
0.04522648 0.013042276 0.13286747 -0.03293544 0.0026183422 0.017381143 -0.04259174 -0.06096083
0.35042226 0.23188528 0.15888493 -0.15293097 -0.08363012 0.06508299 0.007725149 0.09943701
-0.111984715 -0.17057689 0.0016274892 -0.15825422 0.051911373 -0.043214105 0.040116064 0.15261501
0.052695833 0.1209925 0.06252319 0.13557765 -0.22728522 -0.068988785 0.009982281 -0.103504434
0.052762803 -0.07071941 0.27127135 -0.08729417 0.07951766 0.13557099 0.025495693 0.026936825
-0.122254364 0.11592462 0.14693089 0.053940557 -0.029885387 0.035538156 0.18989204 -0.22214016
0.1314774 -0.01806019 0.00028031782 0.05179781 -0.005392483 -0.02554911 0.10580877 0.15046912
-0.21111582 0.03409925 -0.030233683 -0.20569244 -0.17376801 0.0124953715 -0.10486408 -0.100197405
0.040785566 0.18009445 0.09581228 0.13582496 -0.0415626 -0.15392995 0.19000787 -0.084197745
0.104865335 0.34690964 -0.101418145 -0.078183025 0.06770208 0.07423659 0.013830229 0.13314696
0.12821129 0.05822849 0.13366833 0.049625427 -0.082807936 0.090946324 0.1351927 0.28578156
0.2000957 -0.007918409 -0.202115 -0.16036573 -0.12483301 0.08836039 0.016727155 0.029403154
0.14728232 0.17851713 0.20494059 0.059171375 0.15400484 0.03312256 -0.017794043 0.0264013
-0.046063717 -0.17428555 -0.032931466 0.008085949 0.045936063 -0.13383108 -0.067765646 -0.097060025
0.08637681 -0.19502187 0.06907193 -0.057411693 -0.055615984 -0.12036337 -0.14072338 0.010812358
-0.18747464 -0.13803351 0.044231433 0.043985818 -0.16576795 0.029478636 -0.13304368 -0.092949115
-0.122473985 -0.07009351 -0.08810411 -0.13792773 0.19449402 0.060751334 -0.11439428 0.10357402
-0.10712112 0.014557786 0.0173463 -0.115339614 0.34984648 -0.08643251 -0.04234352 0.06495965
-0.008254313 -0.08844141 -0.07519628 -0.040164053 0.012673766 0.14200531 -0.057494108 -0.07539958
-0.044827975 0.17763713 -0.056775484 0.11286096 -0.08752245 -0.0718013 0.15916923 0.12212923
0.097434744 0.21336465 0.2949121 0.18455444 -0.08347373 -0.06780466 0.11170996 0.07751562

4.0.2.bias f4 [16]
00000000: 499c a03e cfb4 503e 0194 dbbc 9650 b63c
00000010: 62b4 013e 99a2 ab3c 1b57 71bd 10fb 023d
00000020: 6984 553d 05c3 6d3e 82e2 ae3d ba60 f13d
00000030: a34a 83bd 80af 203d d8ab 013e a104 6e3e
0.31369236 0.20381473 -0.026803972 0.022255223 0.12666467 0.020951556 -0.05892096 0.031977713
0.05212823 0.23218925 0.08539297 0.11786027 -0.0641072 0.03922987 0.1266321 0.23243953

4.0.2.running_mean f4 [16]
00000000: b11d 2e3f 6594 e73e f730 c53e 4f50 453f
00000010: ffb7 553f 0576 b53e a9bc 233f 2828 133f
00000020: 4458 173f 821f 3d3f 0a98 5a3f db98 943f
00000030: 97ef 373e 7c5d 723f c176 e13e 9550 ee3e
0.68014055 0.45230404 0.3851392 0.77075666 0.8348388 0.35441604 0.6395975 0.5748315
0.5911906 0.738762 0.85388243 1.1609148 0.1796249 0.94673896 0.44035915 0.46545854

4.0.2.running_var f4 [16]
00000000: 021c 9a3f 826b 1f3f fe9f 173f 3d3b 943f
00000010: 7bdb c83f a4b7 f53e 8572 5e3f a815 b33f
00000020: 2ab6 8d3f 942b 953f a605 a23f 6996 4740
00000030: d2e6 db3d 121f ef3f b351 d33e ca6d b03e
1.2039797 0.6227342 0.59228504 1.1580578 1.569198 0.4799167 0.8689349 1.3990984
1.1071217 1.1653924 1.2657974 3.1185553 0.10737385 1.8681357 0.4127327 0.34458762

4.0.2.weight f4 [16]
00000000: 57aa 833f 67eb 7f3f cf7c 7c3f 536d 823f
00000010: f265 7e3f 118a 813f 02f0 7b3f 55e6 803f
00000020: 04dd 643f 7684 8b3f 05cf 823f 91e7 6a3f
00000030: 091d 7c3f 5707 853f 653b 6f3f eeab 853f
1.0286359 0.9996857 0.9862794 1.0189613 0.99374306 1.012026 0.984131 1.0070292
0.89399743 1.0899799 1.0219427 0.9175959 0.98481804 1.0392865 0.93450004 1.0443094

5.0.bias f4 [16]
00000000: 7af6 e8bd 3ca4 13bd a2a0 2d3e 2967 adbc
00000010: fe64 db3d 250f 70be 57cb 843e 0c9c 023d
00000020: 6cdd 0cbe 0363 b13e 56c3 7e3e 6a84 c43e
00000030: 7372 a9bd 0ce4 a73d 5a4c d93d 012a aabe
-0.11375137 -0.036045298 0.16955808 -0.021167355 0.10712622 -0.23443277 0.25936386 0.0318871
-0.1375634 0.34645852 0.24879202 0.38382274 -0.082737826 0.08197793 0.10610266 -0.3323517

5.0.weight f4 [16, 2, 3, 3]
00000000: c180 5bbe f7ee 5dbe e84a 8dbe 9d9f f5bd
00000010: 16b6 e3bd ffce 6abe 2da2 2fbe 048c 3b3c
00000020: 7c31 88be 3ff3 3bbd bc95 91be ec5b 2dbc
00000030: b3d3 44be 2734 72be a79b 63be 8929 683d
00000040: 1193 5cbe 72d2 29be b2b4 82bd fd22 e6bb
00000050: ee44 5f3e 1249 cf3e c209 ea3e f639 2d3e
00000060: e9d0 a4bd a08d 94bd 5221 1d3e 83a4 d0bd
00000070: 0c0c 373e e3c9 6b3d 535a 02be 0fd7 903e
00000080: 71a0 813e 726c 1b3e c1fd 283e 697d 033e
00000090: cae2 77bd ea17 be3d 8f6e 2cbe 04a0 573e
000000a0: cb28 433e 4249 1e3e 89fb 05be 53c5 f43d
000000b0: 47d8 413d 157a 763d 6bad 843d 8457 55be
000000c0: 9f19 113d 6da1 3c3e 81a8 01be 5d57 203e
000000d0: 88e6 743e 73b9 003e 180e 99be 519e 843d
000000e0: 7841 4fbe 56a0 1ebc b9c8 18be a897 2abe
000000f0: 3b33 033e 6f8f 08bd 96ab 16be bd7d 83be
00000100: 5cf1 153e 8ebf b1bd 7988 eb3d 0ddb 833e
00000110: 53e4 9b3d 4054 25be 1be4 c73d 1f07 3cbe
00000120: 61dd 57bc 7d06 823e 7d93 aa3e 2492 9d3e
00000130: 3562 063d 0df2 d03d 5d8c a53e 2141 1d3e
00000140: 985d 7b3e e066 bebd 4a88 a3bd 84dc 85bd
00000150: 99e2 263d 6b6d 51bc 2cbf c23c adfe a8be
00000160: 3671 05be fe55 ff3d 7999 01be bf84 79be
00000170: 651e 36be 3be5 b8bc b87e 48be a26d 9cbe
00000180: 33df ecbc 6656 6bbd 4d52 b8bb 215a da3d
00000190: ac18 9a3e cd1f d43d a3c2 f6bb d221 6c3e
000001a0: e271 75ba 539e 8d3d 8ec3 10be 3524 843e
000001b0: 920e b6bd 1c0d 87bd c28d 09be df18 473e
000001c0: b262 9a3d 408b 703e b3d8 29be 44b9 493e
000001d0: 400c 213e f0f0 3a3e 6ae1 9fbe 27a6 173d
000001e0: 49de 08bd 1bb6 1e3d f4a2 db3d 8f54 923e
000001f0: 38f9 8dbd a937 933d a9b2 12be d521 07be
00000200: 8f03 4b3e 3b38 e63d 632f 30be de6e 863e
00000210: d66d 2bbe a277 4bbe 3435 ccbd 87bf 56be
00000220: 081f 13bd d0e0 483e 270f 35be 9cea 5a3e
00000230: abef 933d 0768 1bbc c7fc 193e 3750 043e
00000240: f9fd f43d 074e 213d 6ae3 8bbc 1b7d bbbd
00000250: f69d f9bd b325 6b3d ce40 2dbe cfd4 00be
00000260: 7775 fbbc e282 3a3b d04c 5fbe 0070 4abe
00000270: bfed 30be 4dbb 9ebe 2dac 95be ebd2 71be
00000280: 276c 35be 6766 82be 8982 31bc 88da 463e
00000290: fd7c 9dbd 406f 5b3e a038 953e 53c4 093e
000002a0: 5174 09be 214c e93d 8709 d73d bb97 62be
000002b0: 4dc5 013e 4f87 223e b730 a43e d0af d83e
000002c0: 928b c03e 4f73 ba3d 5a3b 1cbe a20e b23c
000002d0: da08 a0be 2d58 cc3d 245a ef3d 6c28 a1bd
000002e0: b485 9fbd b608 9abd 455b 033d 7660 ba3e
000002f0: 4390 9a3e b015 c8bc 2cd5 a9bd 773e 363e
00000300: 5d9f 7c3e aa77 543e ef79 bb3d 61df 773e
00000310: 566d 1d3d a73a 0f3e bf11 85b9 44f6 02be
00000320: 2473 61bb e7f0 e33d 97fc 863e d931 91bd
00000330: 023f 9b3e 0a32 923e 86e4 1ebe eb71 4ebe
00000340: f15d b23d d272 d8bd b15e 2e3e ad9e 8e3d
00000350: 14dd 86be 8bfc c93d 5eaa 56b9 f53b 2dbd
00000360: 45b9 843c 440e 033e 31e8 97bc ade0 dfbd
00000370: 5f7c b1bd 507a 9dbd b44f e83d 52de 563d
00000380: c52a 5bbd 2fc6 86ba 0bc2 99bd ea22 87be
00000390: 40e1 c0bd 9f91 87bb 8ebb bf3d 9790 453e
000003a0: b908 293e 1be6 9d3e b3dc 7abd 49f0 a53d
000003b0: efd3 ba3c a1ec 4abd fe0a 95be d599 0dbe
000003c0: c77c dbbb f352 a7bb 2961 a53e 08cb 9ebc
000003d0: c911 c43e 1ef3 a6bc f680 13be 4d23 e13e
000003e0: 6d57 3cbe bedd 503d 2810 323e ab68 f13d
000003f0: 777a cd3d 1b8c b63d eb06 15be 3f09 533d
-0.21435834 -0.21673189 -0.2759621 -0.119933344 -0.111187145 -0.22930525 -0.17151709 0.011446957
-0.26600254 -0.045886274 -0.2843455 -0.010580998 -0.19221382 -0.23652707 -0.22227345 0.056680236
-0.21540476 -0.16584185 -0.06382121 -0.007023214 0.21803638 0.40485436 0.4571057 0.16916642
-0.08047659 -0.07253575 0.15344742 -0.10187628 0.1787569 0.05756558 -0.12729768 0.28289077
0.2531772 0.15178087 0.1650305 0.12840809 -0.060519017 0.09281905 -0.1683905 0.21057135
0.1905853 0.15457633 -0.13084234 0.11951699 0.0473254 0.06017502 0.06478389 -0.20834166
0.035424825 0.18420954 -0.12661935 0.15658326 0.23916066 0.12570743 -0.29893565 0.06475509
-0.20239818 -0.009681782 -0.1492032 -0.16659415 0.12812512 -0.033339914 -0.14713892 -0.25681868
0.14642853 -0.08679114 0.115006395 0.2575306 0.07611909 -0.1614542 0.097603045 -0.18362091
-0.013175339 0.25395575 0.3331565 0.3077556 0.0328085 0.102024175 0.3233365 0.15356876
0.24547422 -0.092969656 -0.079849795 -0.06536201 0.040743444 -0.012782435 0.023772798 -0.33006802
-0.13031468 0.124675736 -0.12656201 -0.24367045 -0.17785032 -0.022570243 -0.1957959 -0.30552393
-0.028915023 -0.057455443 -0.0056250454 0.10661722 0.30096948 0.10357628 -0.0075305267 0.23059776
-0.0009362978 0.069149636 -0.14137098 0.25808874 -0.08889498 -0.06594297 -0.13432983 0.19443081
0.07538356 0.2349062 -0.1658657 0.1969958 0.15727329 0.18255973 -0.31226665 0.03702369
-0.033415113 0.038747888 0.1072444 0.28580138 -0.069323 0.07188351 -0.14325966 -0.131965
0.19825576 0.11241194 -0.17205577 0.2625646 -0.16741118 -0.19869855 -0.09971085 -0.209715
-0.035918266 0.19617009 -0.17681561 0.21378559 0.072234474 -0.009485251 0.15037833 0.12921225
0.11962504 0.039381053 -0.017076213 -0.09154721 -0.12188332 0.057409 -0.16919252 -0.1258118
-0.03069566 0.002845936 -0.21806645 -0.19769287 -0.17278193 -0.31002274 -0.29232922 -0.23615615
-0.17717038 -0.25468752 -0.010834345 0.194193 -0.07689855 0.21429157 0.29144764 0.13453798
-0.13423277 0.113914736 0.10499864 -0.22128193 0.1267292 0.15871929 0.32068416 0.42321634
0.37606484 0.091040246 -0.15257016 0.021735493 -0.31256753 0.09977756 0.11687115 -0.07869038
-0.07789174 -0.07521193 0.032069463 0.3640172 0.30188188 -0.024424404 -0.082926124 0.17797266
0.24670167 0.20748773 0.09154116 0.24206306 0.03843435 0.13987218 -0.0002538096 -0.12789255
-0.0034400905 0.11129933 0.26364586 -0.07089586 0.3032151 0.28553802 -0.15516862 -0.20160644
0.08709324 -0.10568775 0.1702831 0.06963859 -0.26340544 0.09862622 -0.00020472097 -0.042293508
0.016201625 0.1279841 -0.018543335 -0.109315254 -0.086663 -0.07689345 0.11343327 0.052458115
-0.053507585 -0.0010282452 -0.07507714 -0.26393825 -0.09417963 -0.0041372324 0.09361945 0.19293438
0.16507234 0.3083962 -0.06124563 0.081024714 0.022806136 -0.049542073 -0.2910995 -0.13828214
-0.006698224 -0.005106324 0.3230069 -0.019383922 0.3829482 -0.0203796 -0.14404663 0.43972245
-0.18392725 0.05099272 0.17388976 0.11787542 0.10033124 0.08913442 -0.1455342 0.05152249

5.2.bias f4 [16]
00000000: a22e 18bf 62bd 203f 026b ce3e 0b1c 933e
00000010: fe2b 3d3f 10cd 063e e1c2 0c3e f85c 5bbd
00000020: e138 aabe 283d 403f 429a 0b3f aa6f e73e
00000030: 895d 233e 843c c93e f956 413e b5d1 08bf
-0.59446156 0.62788975 0.40316015 0.28732333 0.7389525 0.13164163 0.13746215 -0.05355546
-0.3324652 0.7509332 0.54532254 0.4520238 0.1595365 0.39303982 0.18880834 -0.5344499

5.2.running_mean f4 [16]
00000000: 3639 053c 94a5 0240 16ff 2e3f b8fa 4e3e
00000010: c4d4 8e3f a0cc d83e 0366 083f 1b0e a53e
00000020: 2cb8 c03d c517 da3f 182c 873f 0232 283f
00000030: 2f2b 713e 6af6 133f 5bae 3a3f 39b7 ef3a
0.008131316 2.041356 0.6835798 0.20212829 1.1158681 0.42343616 0.5328066 0.32237324
0.09410128 1.7038504 1.0560331 0.65701306 0.2355163 0.57797873 0.72922295 0.0018288858

5.2.running_var f4 [16]
00000000: d1f2 133b faa5 8940 6061 843f 45b2 be3d
00000010: d9a0 2b40 0df2 4d3f d8c5 0c3f d7e7 ea3e
00000020: ea5f 633d abd9 8340 4f34 ff3f 716f 2c3f
00000030: d417 823e 12b2 433f 3254 703f 58d6 a539
0.002257515 4.301511 1.0342216 0.09311346 2.6816924 0.80447465 0.54989386 0.45880005
0.055511393 4.120321 1.9937838 0.67357546 0.25408804 0.7644359 0.9387847 0.0003163095

5.2.weight f4 [16]
00000000: 4976 703f 9a20 813f 360a 5c3f 3c04 613f
00000010: b997 453f de74 5d3f f59a 793f defa 8b3f
00000020: 07e3 813f ba40 793f f2a3 743f 35b4 8d3f
00000030: f4fd 7e3f 1f7f 803f f812 823f 3031 8d3f
0.9393049 1.0088074 0.8595308 0.87897086 0.77184635 0.8650645 0.9750207 1.0935934
1.0147408 0.9736439 0.9556266 1.107062 0.9960625 1.0038794 1.0162039 1.1030636
